…
 34  Utsunomiya_湿度(％)      5844 non-null   float32       
 35  Ohsaka_海面気圧(hPa)      5844 non-null   float32       
 36  Ohsaka_降水量(mm)        994 non-null    float32       
 37  Ohsaka_気温(℃)          5844 non-null   float32       
 38  Ohsaka_湿度(％)          5844 non-null   float32       
dtypes: datetime64[ns](1), float32(36), int64(2)
memory usage: 1004.4 KB
None
Model: "sequential_1"
_________________________________________________________________
Layer (type)                 Output Shape              Param #   
=================================================================
dense_1 (Dense)              (None, 32)                1184      
_________________________________________________________________
leaky_re_lu_1 (LeakyReLU)    (None, 32)                0         
_________________________________________________________________
dropout_1 (Dropout)          (None, 32)                0         
_________________________________________________________________
dense_2 (Dense)              (None, 32)                1056      
_________________________________________________________________
leaky_re_lu_2 (LeakyReLU)    (None, 32)                0         
_________________________________________________________________
dropout_2 (Dropout)          (None, 32)                0         
_________________________________________________________________
dense_3 (Dense)              (None, 3)                 99        
_________________________________________________________________
activation_1 (Activation)    (None, 3)                 0         
=================================================================
Total params: 2,339
Trainable params: 2,339
Non-trainable params: 0
_________________________________________________________________
2020-08-09 15:36:58.343343: I tensorflow/core/platform/cpu_feature_guard.cc:142] Your CPU supports instructions that this TensorFlow binary was not compiled to use: AVX2 AVX512F FMA
2020-08-09 15:36:58.346997: I tensorflow/core/platform/profile_utils/cpu_utils.cc:94] CPU Frequency: 2500000000 Hz
…
