…
Int64Index: 5844 entries, 2 to 35060
Columns: 152 entries, 日付 to Ohsaka_風速(m/s)_Y
dtypes: datetime64[ns](1), float64(58), int64(21), object(72)
memory usage: 6.8+ MB
None
<class 'pandas.core.frame.DataFrame'>
Int64Index: 5844 entries, 0 to 5843
Columns: 1272 entries, 日付 to Ohsaka_風速(m/s)_Y
dtypes: datetime64[ns](1), float64(1178), int64(21), object(72)
memory usage: 56.8+ MB
None
Model: "sequential_1"
_________________________________________________________________
Layer (type)                 Output Shape              Param #   
=================================================================
dense_1 (Dense)              (None, 256)               325120    
_________________________________________________________________
leaky_re_lu_1 (LeakyReLU)    (None, 256)               0         
_________________________________________________________________
dropout_1 (Dropout)          (None, 256)               0         
_________________________________________________________________
dense_2 (Dense)              (None, 256)               65792     
_________________________________________________________________
leaky_re_lu_2 (LeakyReLU)    (None, 256)               0         
_________________________________________________________________
dropout_2 (Dropout)          (None, 256)               0         
_________________________________________________________________
dense_3 (Dense)              (None, 3)                 771       
_________________________________________________________________
activation_1 (Activation)    (None, 3)                 0         
=================================================================
Total params: 391,683
Trainable params: 391,683
Non-trainable params: 0
_________________________________________________________________
2020-08-10 12:50:19.397802: I tensorflow/core/platform/cpu_feature_guard.cc:142] Your CPU supports instructions that this TensorFlow binary was not compiled to use: AVX2 AVX512F FMA
2020-08-10 12:50:19.419241: I tensorflow/core/platform/profile_utils/cpu_utils.cc:94] CPU Frequency: 2999995000 Hz
…
